v3/sign_language_model_v3.pth (torch, 703345 bytes, 24 tensors)

lstm1.weight_ih_l0 f4 [256, 258]
000000 04 38 66 3e e6 da 8f 3d dc b5 95 bd c6 f4 01 3e
       0.22482306 0.070241734 -0.073100775 0.1269103
000010 b7 e9 74 3e 38 cb d2 3c 09 a8 29 3d 65 9c 79 3e
       0.2391728 0.025731668 0.041420016 0.24376066
000020 cf 60 81 3e 2c 35 51 3e d4 7f b6 3c c4 f4 90 3d
       0.25269172 0.2043044 0.02227775 0.07077935
000030 1c ef 3b 3d ac 9c b5 3c 16 cd 08 be 81 11 56 3e
       0.04588233 0.022169434 -0.13359484 0.20905115
000040 ca 22 10 3e 95 4c b8 3d b9 1b 8a bd 21 34 3b 3d
       0.14075771 0.08998982 -0.06743569 0.04570401
000050 fd 0b 99 3c 0c ed ab 3d aa 36 a6 bd 1f c5 0f 3e
       0.018682474 0.083948225 -0.08115895 0.1404004
000060 24 b9 7a 3e 6e 88 49 3e 56 2a 23 bd a2 39 bc 3d
       0.24484688 0.1968095 -0.039835297 0.0919068
000070 b4 8d 87 3d 50 ef 97 3c 24 c9 76 bd b5 86 43 3e
       0.066188246 0.01854673 -0.060250416 0.19094355
000080 a7 83 df 3d 93 e0 7f 3d d9 3c ba bd 98 02 b3 3d
       0.109137826 0.06247003 -0.09093637 0.08740729
000090 25 61 0b 3e d9 8c 16 3e 28 9c ad bc eb 5a 56 3d
       0.13611276 0.14702167 -0.021192625 0.0523328
0000a0 f8 f1 7f 3e 18 dd c4 3d b1 10 ec bd 7e 69 02 3d
       0.24994648 0.09612483 -0.11526621 0.031838886
0000b0 3a c5 33 3d 27 fb 73 3e e4 5c e7 bd 4a 07 74 3e
       0.04388926 0.23826276 -0.11297014 0.23830906
0000c0 9d e1 1a 3e 30 1a 43 3e 4f 67 88 bd 27 0f 8b 3d
       0.15125127 0.19052958 -0.066603296 0.067899995
0000d0 fe 17 2b 3e 3e 81 81 3e f9 28 18 be 39 3c 80 3e
       0.16708371 0.25293916 -0.1485938 0.25045946
0000e0 f6 19 cc 3d 82 78 84 3e f6 79 b6 bd b5 cb b2 3d
       0.09965889 0.2587319 -0.08909981 0.0873026
0000f0 4b 63 d6 3d 32 a6 62 3d a9 b5 16 bd d7 1f 3b 3e
       0.104681574 0.055334277 -0.03679434 0.18273865
000100 58 20 db 3d ea 9a 1b 3e cb 8e 15 be 0c 55 ac 3d
       0.106995285 0.15195814 -0.14605252 0.08414659
000110 db 8c 0e 3e d4 60 8d 3c 71 e8 41 be e0 d4 3b 3e
       0.1392092 0.017258085 -0.18936326 0.18342924
000120 13 fe 57 3d 94 f2 39 3e ee 38 d9 bd 54 4a 5b 3e
       0.05273254 0.18158942 -0.106065616 0.21415073
000130 0a 29 0a 3d b2 ed df 3c 2e 49 47 be 18 6e 95 3d
       0.033730544 0.027335022 -0.1946151 0.07296389
000140 02 06 ff 3d d1 bb 37 3e 1f ec 4b be b9 7c 11 3e
       0.12452318 0.1794274 -0.19914292 0.14207734
000150 2f 26 59 3e ef 7b 58 3e a7 46 70 be 16 8c 66 3e
       0.21205972 0.21141027 -0.23464452 0.22514376
000160 a5 03 82 3d 58 ba e2 3d d9 67 63 be dc 3c f6 3c
       0.063483514 0.110706985 -0.22207583 0.030058317
000170 ab 06 29 3d 62 61 09 3e 16 77 85 be 59 9c 2d 3e
       0.041266125 0.13416055 -0.26067418 0.16954173
000180 89 af 14 3e 24 65 22 3e 74 d1 1f 3d 7d 68 db 3a
       0.14520086 0.15858895 0.03901811 0.0016739514
000190 05 06 31 3e da 84 05 3e 4d f1 60 be 8e b0 95 3d
       0.17287453 0.1303896 -0.21967049 0.07309066
0001a0 ff 59 cc 3d 3e 2a 3a 3e e1 64 e4 3d 97 61 98 3d
       0.09978103 0.18180177 0.111520536 0.07440489
0001b0 aa ac 87 3d cc d2 3b 3e b9 a4 22 3e ec ac a6 bb
       0.0662473 0.18342131 0.15883149 -0.005086532
0001c0 d9 55 2d 3e 9f a9 dd 3d 5c 44 17 3b 26 75 60 3e
       0.1692728 0.10823368 0.0023081517 0.21919689
0001d0 e2 5b 4e 3e 35 d9 98 3d d6 ae 28 3e b0 a6 bb bc
       0.20152238 0.07463304 0.16472945 -0.022906631
0001e0 f5 d4 b1 3d 7f ce 45 3e f3 a9 08 3d 72 70 36 3e
       0.086831965 0.19317053 0.0333652 0.17816332
0001f0 ae 2a cf 3c 40 56 fc 3c b8 64 20 bd 1a 37 3a 3e
       0.025288906 0.030802846 -0.039158553 0.18185082
000200 96 d2 f2 3d 9f 82 76 3e e3 9f d8 bd 49 9a 93 3d
       0.11856572 0.24073265 -0.10577371 0.07207162
000210 1e 9f 90 3e 7a c9 5c 3e 65 54 9e bd 49 ca 3c 3e
       0.28246397 0.21561232 -0.07730941 0.1843654
000220 63 98 f0 3d e3 2c f9 3d f9 e0 d6 3d 0a 5e 1b 3e
       0.117478155 0.121667646 0.10492129 0.15172592
000230 e7 95 9d bd d5 6c 68 3e 3a 36 18 3e d8 b6 9f bc
       -0.07694607 0.22697766 0.14864436 -0.019496366
000240 3f c0 61 3e 67 69 d5 3d db ca 5a 3d 18 48 fd 3d
       0.22045992 0.104204945 0.053416114 0.123672664
000250 9f e6 e7 3d a5 30 45 3d 2c 10 68 3d 65 6e 1e 3e
       0.11323284 0.048142094 0.056656048 0.154718
000260 a2 82 0e be b5 71 8c 3d 92 64 d8 3d be a8 f0 bd
       -0.1391702 0.068576254 0.10566057 -0.11750935
000270 73 d5 81 3e fa 0d 87 3d a5 10 43 3d ff 01 8c 3e
       0.2535816 0.06594463 0.047623295 0.27345273
000280 cc 93 23 3e e4 c5 2f bc c0 f3 01 3d 94 5e d1 3d
       0.15974349 -0.010728333 0.0317266 0.102231175
000290 b5 e3 1e be 09 61 c3 3d e7 5d 16 3e f1 10 c9 bd
       -0.15516551 0.09539992 0.14684258 -0.098176844
0002a0 3d cc 85 3e ae cf 00 3e fe 46 d9 bd 1a cf 30 3e
       0.26132384 0.12579224 -0.10609244 0.17266503
0002b0 0c 48 ac 3d 92 75 c5 bd e3 38 3d 3e 40 7f 59 3e
       0.08412179 -0.096415654 0.18478732 0.21239948
0002c0 18 05 9b 3d c0 00 07 3d af b7 11 3e 67 e9 2b 3d
       0.07569331 0.0329597 0.14230226 0.041970637
0002d0 bd 30 8d 3e 64 a2 ae 3a 3d c3 2a bc 83 27 82 3e
       0.27576247 0.0013323543 -0.010422525 0.2542077
0002e0 82 ef bd 3c bf 16 41 bd 73 4e ff 3d ca fc e6 3d
       0.023185495 -0.047140833 0.12466135 0.112786844
0002f0 11 35 1c be db 73 51 3e 59 2e a4 3d 29 2f 60 3d
       -0.15254618 0.20454352 0.080166526 0.054732475
000300 8e d6 0d 3e 94 6a 58 3a 95 77 a2 bd 95 a3 d5 3d
       0.13851377 0.00082556275 -0.07932965 0.104315914
000310 27 be 3c 3e 3e 0b aa 3c 9b 14 af 3b cc e5 ef 3d
       0.18431912 0.020757314 0.0053430325 0.11713752
000320 4d 27 ab bd cc 13 7d 3d 00 8c 45 3e 57 e5 cc bd
       -0.083571054 0.061786458 0.19291687 -0.100046806
000330 32 0b 49 3e 47 bc ec 3c c1 5d 78 3d ec 12 8d 3d
       0.19633177 0.028898371 0.060636286 0.06888375
000340 aa 8c 74 3d 13 7d c1 bd 95 90 0b 3e b9 70 1f 3d
       0.05970446 -0.09447684 0.13629372 0.03892586
000350 ca 49 7c 3d a8 4d 5d 3e 34 b1 18 3d ca 78 91 bd
       0.06159381 0.21611655 0.03727837 -0.07103117
000360 15 f1 59 3e 5a 33 d4 3d 3f f5 14 ba 48 c4 4d 3d
       0.21283372 0.10361357 -0.00056822965 0.050236017
000370 ab bc 58 3e 1e 06 d8 bd ca d4 45 3e 95 af 17 3e
       0.21165721 -0.10548042 0.19319454 0.14813073
000380 1e dc b8 bd a4 31 8b 3d de 0f 22 3e a2 7d 78 3d
       -0.09026359 0.067965776 0.15826365 0.060666688
000390 a4 78 c7 3d 59 41 8c 3d 33 ab ce bc 17 0d 68 3e
       0.09739807 0.068484016 -0.025228119 0.22661243
0003a0 c4 63 9b bb f4 ae 26 bb c1 05 b2 3c aa 08 0e 3e
       -0.0047421176 -0.002543387 0.02173126 0.13870493
0003b0 d5 ba db bd b2 dc 2f 3e 02 33 32 3e be cd 61 3c
       -0.10728995 0.17174032 0.1740227 0.013781963
0003c0 cf 96 88 bc 05 73 5a 3e 91 e4 a9 bd ec d3 c1 3c
       -0.016673474 0.21332939 -0.08295549 0.023660623
0003d0 8b e1 21 3d 83 39 0a bc a6 b6 a4 3d 16 7d 08 3e
       0.039521735 -0.008436563 0.0804265 0.13328966
0003e0 c5 58 f6 bd 0a d8 74 3c 4d 2d 9a 3d e8 29 1b 3c
       -0.1202865 0.014944086 0.07528172 0.00947044
0003f0 dd 64 83 3c 40 0f 39 3e a1 6a ac bd 2a fc 0a bc
       0.016039306 0.18072224 -0.08418775 -0.008482972

lstm1.weight_hh_l0 f4 [256, 64]
000000 fd 40 d4 3d 28 39 16 3e d3 38 ca 3d 52 0b 9b bd
       0.10363958 0.14670241 0.098741196 -0.075705186
000010 38 f7 b1 3b a6 38 f4 3d 44 01 a3 bd c1 76 c3 3b
       0.005431082 0.11924867 -0.07959226 0.0059650843
000020 9a 12 93 bd b6 4a a7 3d 25 bd 1c be 54 aa 4f 3c
       -0.07181282 0.08168547 -0.15306528 0.012674887
000030 84 ea 0e bd b0 45 26 3e 7a aa 48 bd 0f 48 01 3d
       -0.03489162 0.16237521 -0.048990704 0.03156286
000040 47 46 36 3c 63 34 c1 bc d8 9b 26 be 4c 66 db 3d
       0.011125154 -0.02358455 -0.16270387 0.10712871
000050 11 0c b3 3c 77 33 24 be 98 df e3 bc 80 7e c3 3c
       0.02185634 -0.16035257 -0.027816579 0.02386403
000060 02 5a 15 3e 59 82 a8 3d ea 70 6c 3d 09 52 f2 3d
       0.14585117 0.08227987 0.05772487 0.11832053
000070 62 18 9b 3c 57 89 11 3d bd 26 bd bd 01 36 9f bc
       0.018932525 0.035531368 -0.09235904 -0.01943493
000080 48 27 73 bc 48 4d 17 be b2 9c 60 bd d8 df 2f 3e
       -0.014840908 -0.14775574 -0.054836936 0.17175233
000090 73 11 93 3d 03 8c bc bd 24 65 f5 3d 63 ca 05 3e
       0.071810625 -0.092063926 0.11982182 0.13065486
0000a0 2f ba cb 3d fc 40 c2 3c 7f f8 1c be 1a 32 e8 3d
       0.09947621 0.023712628 -0.15329169 0.11337681
0000b0 93 1f 51 3d b8 e6 a6 bd a3 bf 71 3d ca 60 18 be
       0.051055502 -0.08149475 0.05902065 -0.14880672
0000c0 0b 21 00 be 4a 7b 18 be 9f 16 8b bc 7f 35 5a bd
       -0.12512605 -0.14890781 -0.01697856 -0.053273674
0000d0 ac 03 0b 3e 87 c1 a8 3d 55 9d 18 3d 2d 0a 8a bd
       0.1357562 0.082400374 0.03725942 -0.06740222
0000e0 34 2f 02 be fd a3 b4 3c 0c 08 12 bd 52 44 94 3b
       -0.12713319 0.022050852 -0.035652205 0.004524746
0000f0 81 a6 90 3b 4f 6b 09 be d2 01 9b bd ae 48 07 3e
       0.00441438 -0.13419841 -0.075687066 0.13211319
000100 a2 af 3c 3e 60 71 68 bd 63 7f cc bc f1 17 93 3d
       0.18426374 -0.056748748 -0.024963086 0.07182301
000110 0b ad 18 be 19 cd 3a 3d 0e 6e ac 3c 33 ac 5a bd
       -0.1490976 0.045605753 0.021048572 -0.05338688
000120 02 5d f3 3d 57 d4 e4 3d de 2d 6d bd 54 76 bf 3d
       0.11882974 0.11173313 -0.05790507 0.09348741
000130 45 25 28 be 2c 49 92 bb ac 99 0d be b6 63 76 bd
       -0.16420467 -0.004464289 -0.13828152 -0.060153686
000140 2e 8e a1 bd c3 4f 09 be 74 ca 00 3d bd bd 8b bd
       -0.07888447 -0.13409333 0.031443074 -0.06823299
000150 2d 54 81 3d bc 0a fa bc a5 e1 6d 3d bd 24 a1 bc
       0.063148834 -0.030522697 0.05807652 -0.019670838
000160 ba 05 ce 3d da 4a d5 bd 28 d4 da 3d cb 7d 88 bd
       0.10059686 -0.104146674 0.10684997 -0.06664618
000170 27 f0 da bb 0a 8e ac bd e8 83 5b 3d e6 1b 0d bd
       -0.0066814604 -0.08425529 0.053592592 -0.034450434
000180 7f 85 15 3d 39 d7 ad bb f5 5e ea 3d bd 50 d5 3d
       0.036504265 -0.0053051976 0.11443893 0.1041579
000190 7c 19 e9 3d bc d5 03 be a3 f1 d0 3d bb e5 54 bd
       0.11381814 -0.12874502 0.102023385 -0.0519769
0001a0 27 7b 49 3d 74 76 6d bc 04 83 c0 bd 91 25 4e 3c
       0.049189713 -0.014493573 -0.09399989 0.012582199
0001b0 67 55 72 3d 20 b8 ee bd 4f 08 91 3d 05 21 8e 3d
       0.059163477 -0.11656213 0.07081663 0.06939892
0001c0 2e b2 a6 3c 9a 07 1f be 60 cc 3e 3d d4 d4 cf bc
       0.020348635 -0.15530244 0.046581626 -0.025370039
0001d0 91 42 1c 3e f9 eb 00 3d bd 9d e8 bd d1 59 d0 bc
       0.15259768 0.03147504 -0.11358211 -0.025433453
0001e0 a1 e3 7d 3d fa 63 06 bd 0d 10 78 3d c9 57 37 3e
       0.061984662 -0.03281019 0.060562182 0.17904581
0001f0 c9 ed 1e be 2e b1 fe bd f3 c0 be bb 96 3e f0 3c
       -0.15520395 -0.12436138 -0.005821341 0.029326718
000200 94 ff 25 3e a4 ee f5 bd b9 a9 2c 3e d7 4e 65 be
       0.16210777 -0.12008408 0.16861619 -0.22393356
000210 51 e0 92 3d 74 e1 24 3d 35 11 bc bc 11 27 86 bb
       0.07171691 0.04025407 -0.022957424 -0.0040940125
000220 2c 2f 19 be bd f7 4a bd 11 76 48 be 31 59 43 be
       -0.14959401 -0.049552668 -0.19576289 -0.19076993
000230 d1 16 df bd 2c da 8f bd 4d e2 0b 3e 36 df 55 3e
       -0.10893024 -0.07024035 0.13660546 0.2088593
000240 21 b5 2b bd c6 ab 24 3d 59 78 2a 3d d3 09 ca bd
       -0.041920785 0.04020288 0.04161868 -0.09865155
000250 ce 5b 42 bc 76 4c 9f bb ef 74 84 bd b6 f0 02 bd
       -0.011862708 -0.00486141 -0.06467616 -0.03196784
000260 af e5 2d 3e 35 3e 17 3e 79 44 2e be 93 8d d0 bd
       0.16982149 0.14769824 -0.17018308 -0.10183253
000270 a5 70 71 bc 72 89 3e 3d ce c9 8b 3e 30 89 ec bd
       -0.014736329 0.046517797 0.27302402 -0.11549604
000280 33 e8 c6 bd 69 65 9f be dd 36 93 bd e0 b9 ae 3b
       -0.09712257 -0.31132057 -0.07188199 0.0053322166
000290 82 8e 68 bd cb fb e6 bc 1c 02 88 bd 67 9b 03 bd
       -0.05677653 -0.028196236 -0.06641027 -0.032130625
0002a0 49 a9 e0 bd 91 a7 3d be f6 5f 98 bc b2 b6 d5 be
       -0.109697886 -0.18520953 -0.018600445 -0.41740948
0002b0 6b c4 33 be ac 57 4d 3e 4d ad a7 3d a4 f2 24 3e
       -0.17555396 0.20052975 0.081873514 0.16108185
0002c0 1f 1c 2b 3d 1d 52 e3 bd 87 6b 3f bc 51 7a 23 bd
       0.041774865 -0.11099646 -0.011683351 -0.039911572
0002d0 37 8f 6d be 9f 9c 86 3d 59 7f 94 bd 21 b8 5c 3d
       -0.23199163 0.06572842 -0.07250852 0.053886537
0002e0 2a bb 4c bd 3a ca 2f be f3 47 a2 bd 6d 75 dc 3d
       -0.04998318 -0.17166987 -0.079238795 0.10764585
0002f0 9b f0 79 be 25 b8 49 be 3b 8d 4f bd 21 7c 22 3e
       -0.2440819 -0.19699152 -0.050671797 0.15867664
000300 ee 57 c3 3c 34 68 fa bd a4 a8 0f bd 9d 0e da bd
       0.02384564 -0.122269064 -0.035072938 -0.106473185
000310 4e 0f b5 3d 48 37 47 3d d6 ed de 3d c0 72 4d 3d
       0.0884081 0.048636705 0.10885207 0.050158262
000320 02 58 8b bd 27 10 cd 3d 86 91 96 3d 74 bb 35 3e
       -0.068038955 0.100128464 0.07351975 0.17747289
000330 60 c9 0a 3d 9f a1 de bd f5 28 99 3d ea e2 c2 bd
       0.033883452 -0.108706705 0.07478515 -0.09515937
000340 78 ea 4f 3d a4 b5 b0 be a5 1e b6 3d 74 c0 37 3e
       0.050760716 -0.3451358 0.08892564 0.17944509
000350 a0 6d 0b be 0c f2 37 3e 11 f6 c2 3d c9 f3 7e be
       -0.13616037 0.17963427 0.0951959 -0.24897684
000360 64 2f bd 3b 4d fb 0b 3e 34 db c3 3c f2 61 2e be
       0.0057734717 0.13670082 0.023908235 -0.1702955
000370 24 12 37 3c 0b f8 33 be 84 79 15 3c 5b b2 50 3d
       0.011173759 -0.1757509 0.00912321 0.050951343
000380 41 cc b1 bd 0f 4e e7 3d 2d 80 81 be 7b 6e 7b 3d
       -0.086815365 0.11294185 -0.25293103 0.06138466
000390 30 e3 30 bd 04 5a 3c be 5c 55 12 bd dd 85 b7 bd
       -0.043185413 -0.18393713 -0.035725936 -0.08961079
0003a0 93 1d 3a be 2d 58 90 3e e7 1b 52 3d 00 65 41 bd
       -0.18175344 0.28192273 0.05129614 -0.04721546
0003b0 38 d4 0d bd 63 a8 9d 3d 00 9a 52 3d f8 61 0a 3e
       -0.034626216 0.07698133 0.051416397 0.13513935
0003c0 28 c5 1b 3d c2 54 de 3d b5 be ae bd 05 87 67 bd
       0.03802982 0.1085601 -0.08532468 -0.05652525
0003d0 bc ef cc be 5a a5 06 bc 7b b8 8d bd 1a 68 b8 3d
       -0.40026653 -0.008218134 -0.069199525 0.09004231
0003e0 96 e1 b4 3d 36 3a 37 3c a3 fe 93 be f9 cb 51 be
       0.088320896 0.011183312 -0.2890521 -0.20487966
0003f0 5d 70 82 be e7 f2 4d bd d3 3a b4 3e 52 3a cd 3c
       -0.2547635 -0.050280478 0.3520113 0.025052223

lstm1.bias_ih_l0 f4 [256]
000000 2c f5 06 3e 92 11 38 3e ff 43 a4 3c 47 fa a3 bd
       0.13179463 0.17975453 0.020051954 -0.08006721
000010 5d 00 45 3c 36 27 df 3d 94 af 0e 3e 02 1d 9b ba
       0.012024012 0.10896151 0.13934165 -0.0011834207
000020 8c 4d 25 3b 0d ff 0d 3d 3c 06 8e bd c4 d9 a6 bd
       0.0025223223 0.034667064 -0.06934783 -0.08147004
000030 f1 fb 8b bb f5 b6 8f 3d ad 9b e7 3c 21 0e 1b 3e
       -0.004271977 0.07017318 0.028272474 0.15142109
000040 65 24 e2 bd 42 06 d8 bd 69 b2 05 3d 76 36 b7 3d
       -0.11042098 -0.105480686 0.03264085 0.089459345
000050 ac 0c 9f bd 7e c9 69 3e ed 00 00 be e6 e3 d3 3d
       -0.07766089 0.2283077 -0.12500353 0.103462026
000060 bd 29 01 3e c5 e2 c9 3d b8 49 54 3d 51 86 e9 3d
       0.12613578 0.09857706 0.051828116 0.11402572
000070 eb 15 48 bd 44 0f ce 3d c8 ae af 3c cd a6 81 3c
       -0.048849028 0.100615054 0.021445647 0.015826607
000080 fc ac dd 3c 01 f8 f1 3d e6 3e ac bd c9 f5 4a 3e
       0.027060024 0.11814881 -0.084104344 0.19820322
000090 0b 9c 27 be 95 f5 c4 bc bc d5 55 3d 01 fe 1c 3c
       -0.1636812 -0.024042884 0.052205786 0.009582044
0000a0 a2 7a f0 3c 0c a6 a9 3c 20 e9 9f bd 97 d0 21 3e
       0.02935535 0.02070906 -0.07808137 0.15802227
0000b0 e9 57 e5 bd a2 bd 1d 3d c7 6c c9 bd 4c 31 f8 3d
       -0.11198408 0.038510926 -0.09835201 0.12118778
0000c0 84 5c f2 3d 62 8c e5 3d 0a 68 87 bd 27 c5 58 bb
       0.11834052 0.112084165 -0.06611641 -0.0033076496
0000d0 88 26 c0 3d cf 12 6c bd 6e 3d 21 be ea dc a4 3d
       0.09382349 -0.057635125 -0.1574609 0.080499485
0000e0 e1 74 4e 3d 81 0d 37 3c a4 cc 1c 3d 67 7f 1f 3e
       0.050404433 0.011172653 0.038281098 0.15575944
0000f0 cf fc 9c 3d 2c 25 df bd ca 84 8e bc b4 fe 32 3d
       0.07665407 -0.10895762 -0.017397303 0.043699935
000100 fe 57 48 3e 6f 81 67 3e 67 63 d1 bd 36 02 aa 3c
       0.19564816 0.22607969 -0.102240376 0.020753007
000110 71 8a 5d 3d d7 9b 94 bd 11 98 b4 bb 99 70 0e 3e
       0.054087106 -0.072562866 -0.005511292 0.1391014
000120 4f ad 0b 3e b0 b6 83 3d 50 37 55 3d 55 07 bc 3c
       0.1364033 0.06431329 0.052054703 0.022952715
000130 03 38 d5 3c 79 dd 1e 3d 17 a5 3a 3d e9 bc e1 3d
       0.026027685 0.03878543 0.0455676 0.1102236
000140 18 7f dd bc 8f 34 39 bd 26 11 65 bd 8b 77 08 3e
       -0.027038142 -0.04521614 -0.055924557 0.13326852
000150 86 01 d0 3d b0 e6 19 3e d7 60 a8 bb 30 08 42 3e
       0.101565406 0.15029407 -0.0051384973 0.18948436
000160 f6 73 a3 bd c3 23 7a bd 38 42 21 3d 0d 3d 20 3e
       -0.07981102 -0.06106926 0.03936979 0.15648289
000170 50 e1 b7 3d 66 92 03 3d dd e8 a6 3d e4 43 9f ba
       0.08978522 0.03212204 0.08149884 -0.001215097
000180 54 69 aa 3d 37 f7 8e 3d 8e 6a 34 3c dd 87 c1 bc
       0.08320871 0.06980746 0.011011733 -0.023624355
000190 1c 6b 01 be d9 bf 12 3e 64 32 cb bd 98 49 6e bc
       -0.12638515 0.14330997 -0.099217206 -0.014543913
0001a0 af b9 06 be 12 d6 64 bc 80 b7 f6 3d 72 b8 4a 3d
       -0.1315677 -0.013967054 0.120467186 0.049492307
0001b0 a9 13 61 3d 0d 2c fd bc 60 75 13 3e 2d 4a 51 be
       0.05495039 -0.030904794 0.14400244 -0.20438452
0001c0 b7 e3 27 3e 5d 82 bc 3d ac 1b 42 bb 6a 48 30 bc
       0.1639546 0.09204552 -0.0029618545 -0.010759452
0001d0 5c 63 06 3d d3 53 be bd da 3e 12 bc ad c9 1c 3e
       0.0328096 -0.09293332 -0.008926118 0.15311308
0001e0 12 de 01 bd 89 3b 0e 3e f4 52 e7 3d 32 58 b3 3d
       -0.031705923 0.13889898 0.11295119 0.08757056
0001f0 ee 83 9e 3d ef 9f a5 3d f6 0f 35 3c 8c 77 11 3d
       0.07740007 0.080871455 0.011051169 0.0355144
000200 e0 8a 8c bb 5a 29 08 be 80 6c fc 3d 81 46 8a bd
       -0.004289016 -0.13297024 0.12325382 -0.06751729
000210 ab 67 c9 3c 17 79 33 3e 1a a1 48 bd af e5 0d be
       0.024585566 0.17526661 -0.048981763 -0.13857149
000220 4e cf 01 bc e0 87 aa 3c 15 6c e5 bd 5f 69 e6 3d
       -0.00792296 0.020816743 -0.11202256 0.11250567
000230 ac b8 38 be 6b d6 2c bd ad 47 0f be 36 21 35 3e
       -0.18039197 -0.042196672 -0.13992186 0.1768845
000240 33 d4 13 3e d2 60 8f 3b bf 68 7d 3c a5 1e 35 bd
       0.14436416 0.0043755556 0.015466868 -0.044218678
000250 76 be 8a 3d b5 73 41 be d3 cc 56 bd 6f bf a6 3d
       0.06774609 -0.18891795 -0.05244143 0.08141982
000260 d2 19 ac 3d ee 60 1a 3d 14 ec 9c 3d e7 1e 0f 3d
       0.08403362 0.037690096 0.07662216 0.03494158
000270 de 41 13 3e 5e 83 3a 3d 66 f0 85 3c e3 56 ba 3a
       0.14380595 0.045535438 0.016349982 0.0014216568
000280 82 cf 14 3c 55 b2 05 3d a1 cf 9d 3d ff b8 ff 3d
       0.009082677 0.032640774 0.07705618 0.12486457
000290 c8 00 4f bd d8 bb 56 bd 40 13 0f 3d 5e 06 5f 3d
       -0.050537854 -0.052425236 0.034930468 0.05444943
0002a0 04 aa 51 3e c3 db 91 bd 6c 6f b6 3c 72 ca ad bc
       0.20475012 -0.07121994 0.022269927 -0.021214698
0002b0 71 aa 13 3e e0 96 69 bb d6 b4 2c bb 81 c4 d4 3d
       0.14420487 -0.0035642907 -0.0026352904 0.10389043
0002c0 5e 61 23 3a bb a6 21 be be 81 c6 bc 0a 9a 13 be
       0.00062324654 -0.15786259 -0.024231788 -0.1441423
0002d0 9d 43 13 3d b0 a7 2c 3e 28 bc 99 3d fa 19 fc 3d
       0.035953153 0.16860843 0.07506591 0.12309642
0002e0 49 d6 ab 3d 13 fc 80 3d 14 6d 03 3c 5c 97 52 3e
       0.08390481 0.06298079 0.008021612 0.20565552
0002f0 41 ca 9e bc 3c db 93 bd 71 0e c9 3d 9b 75 3d bd
       -0.019383552 -0.0721955 0.098172076 -0.046254735
000300 88 86 37 3d 20 94 83 bd cb 96 97 bd 57 13 04 3b
       0.044806033 -0.06424737 -0.07401808 0.002015313
000310 26 1b 89 3d 20 44 d9 bd a4 1c ae 3d c3 c4 3b 3d
       0.06694631 -0.10608697 0.085015565 0.045841943
000320 6c a4 1e bd c3 4e 7d bd 34 30 1b be fc a0 85 bd
       -0.038731024 -0.06184269 -0.15155107 -0.06524846
000330 b6 2a 4d 3d ca 5b 9d bd 6b 3f 27 bc b2 b1 0d 3e
       0.05008956 -0.07683523 -0.010207991 0.13837317
000340 74 ea 0f be d2 53 6c bc ea 7f 77 3d ab 12 ea 3d
       -0.1405428 -0.014424281 0.060424723 0.11429342
000350 79 a3 e4 3d e1 44 84 bb 13 70 6f bc f4 f3 80 bd
       0.111639924 -0.0040365313 -0.014614123 -0.0629653
000360 cb bf 09 be 5f 52 e3 3d 98 20 22 3e 14 0b 6b bd
       -0.1345207 0.110996954 0.15832746 -0.05738361
000370 cc 3a 0a 3e 34 57 04 3d b3 05 04 3d a1 22 fb bc
       0.13498992 0.032309726 0.032231998 -0.03065616
000380 97 d1 dd 3d 43 ca 5b 3e fb a8 c4 3d 59 6b bc 3d
       0.10830992 0.21463875 0.09602543 0.092001624
000390 22 28 13 be 5c 00 99 3d 02 88 ec 3d bb ba a0 3d
       -0.14370778 0.07470772 0.11549379 0.07848116
0003a0 82 66 af bb 5c de 52 3e b4 ea a9 bc f3 af a4 bc
       -0.005352796 0.20592636 -0.020741798 -0.02010343
0003b0 72 19 b2 3d fe b1 51 3d ef 36 18 bd ba 31 e9 3d
       0.086962596 0.051195137 -0.037161764 0.11386438
0003c0 00 96 9f 3c 40 65 33 3d ae 0c fd bc 3c 63 25 bd
       0.019480705 0.04379773 -0.030889835 -0.04037784
0003d0 96 44 f7 3d e8 c8 e5 3d b9 be 9b bd 1c cf 8c 3d
       0.120736286 0.112199605 -0.07604737 0.068754405
0003e0 74 67 b8 3d 16 3e 9f bd 18 3f c8 bc d5 fa 61 bd
       0.09004107 -0.07775514 -0.024444148 -0.055170853
0003f0 b7 b1 de 3d 1b 41 83 3d fd 5f 37 3d 19 f5 18 bd
       0.1087374 0.06408902 0.044769276 -0.03734312

lstm1.bias_hh_l0 f4 [256]
000000 fe 6b 5f 3e 49 9d 45 3e 8e 5f 59 3d 06 b5 23 3d
       0.2181854 0.19298281 0.053069644 0.03996756
000010 8c 5c cc 3d bd 7b 97 3d 70 9c 07 3e 3c b0 10 3e
       0.099785894 0.07396648 0.1324327 0.14129728
000020 ea 47 87 bd 67 ed e2 3d 92 32 20 3e 81 1e 18 3d
       -0.066055134 0.11080437 0.15644291 0.037138466
000030 a7 9a 83 bc d2 9b 9b bd 23 30 15 be 8c 0a 5e 3e
       -0.016064955 -0.0759808 -0.14569144 0.21683711
000040 72 12 c9 3d 43 d1 b4 3d 66 db d9 bc 69 dc f3 3c
       0.09817971 0.08828976 -0.026593875 0.029768186
000050 68 23 83 bd e5 9e 1e 3e 8a 16 03 be 25 33 2f 3e
       -0.064032376 0.15490301 -0.12801567 0.17109354
000060 0d fa 0f 3d 55 9f ec 3d ba 20 39 3e 3a 77 8d bd
       0.035150576 0.11553828 0.1807889 -0.06907506
000070 c6 d1 c2 bd 2b 1f 2b 3e 58 0f 4c 3d 28 f1 7d 3d
       -0.09512667 0.16711108 0.04981932 0.061997563
000080 36 0a 29 3e 23 f1 af 3d 3b e9 83 bd b5 f6 ec 3d
       0.16507801 0.08590915 -0.064409696 0.11570493
000090 0a 14 26 be 03 42 ae 3d 7e af c0 bb 43 53 a0 bd
       -0.16218582 0.085086845 -0.0058802953 -0.07828381
0000a0 85 f1 c5 3d b9 57 9e 3d a8 e5 0d 3e f4 ad ef 3d
       0.09665207 0.077315755 0.13857138 0.11703101
0000b0 b2 9a 27 be 91 f7 12 bc 5f be f6 bd 4a dd 93 bd
       -0.16367605 -0.008970157 -0.12048029 -0.07219942
0000c0 62 68 ad bd 0d f6 e5 bd 7d 01 ce 3d d0 74 d3 bd
       -0.08467175 -0.11228571 0.100588776 -0.103250146
0000d0 ca 00 ea bb e3 ff df 3d bc 97 0d bd 10 40 c4 3c
       -0.0071412073 0.109374784 -0.034568533 0.023956329
0000e0 31 87 fb 3d fb b6 53 bc 40 21 4a 3e fc 6a 38 bd
       0.12281645 -0.012922044 0.19739246 -0.045023903
0000f0 6d b9 bd 3d 4a b1 dd bb d8 d2 3b bd da 32 b2 3c
       0.09263883 -0.0067655193 -0.045855373 0.021752764
000100 c0 a8 c9 3d e2 99 01 3e a4 3d 1e be 50 12 bd bd
       0.0984664 0.12656358 -0.15453202 -0.092320085
000110 df cf fc bc 05 a1 b2 bd fb 8a 5a bd 6a 79 44 3e
       -0.03086084 -0.08722118 -0.0533552 0.19186941
000120 da b8 d6 3d a1 4f 46 3e 43 c5 ec bd e3 a1 bb 3d
       0.104844764 0.19366314 -0.11561062 0.09161737
000130 0c 85 af 3d 3a c4 59 bd 42 a4 a7 bd a5 bc 3b 3e
       0.085702986 -0.05316565 -0.081856266 0.18333681
000140 fe de 4d bb 4a ea 03 3c 14 af 73 3d 56 03 02 3e
       -0.0031413431 0.008051464 0.05949314 0.12696585
000150 61 fe 8e 3d 96 90 5a 3e 3b 1d b1 ba 21 72 90 3d
       0.06982113 0.21344218 -0.001351274 0.07053018
000160 7d c2 67 bc 40 c9 55 bd 56 b7 d5 3d 0c ef 5e 3e
       -0.014145491 -0.05219388 0.10435359 0.21770877
000170 08 e6 1b 3d bf 51 43 3d be 23 de bc ae 24 24 bd
       0.03806117 0.04768538 -0.027116653 -0.040074043
000180 1e 5c 02 3e ee ed 10 bd 31 9c 6a bd 12 c3 52 bd
       0.12730452 -0.035383157 -0.057277862 -0.051455565
000190 32 23 be bd 83 9c b7 3d b9 ad e2 bc c3 82 af 3d
       -0.09284057 0.08965399 -0.027670728 0.08569863
0001a0 3c 7a 5f bd 93 86 ed bd 3e 8a 28 3d f1 e0 2b 3e
       -0.05455993 -0.115979336 0.041147463 0.16785027
0001b0 b9 bd 35 3e 7c f3 0e bd 43 70 22 3d 64 83 06 be
       0.17748155 -0.034900174 0.039657842 -0.13136059
0001c0 ad 75 2a 3e 23 8b 0c 3e 97 f1 79 bd 98 f2 5f bd
       0.16646452 0.13724951 -0.061021414 -0.054674715
0001d0 e7 f9 b4 3d 80 87 48 3d eb b9 98 3d 63 59 6b 3e
       0.088367276 0.048957348 0.07457336 0.22983317
0001e0 39 1c 97 bb 52 bf 78 3e 9f 8c c6 3c 16 37 77 3b
       -0.0046115187 0.24291733 0.024236975 0.0037722043
0001f0 a7 c3 75 3d 19 0a ab bd 95 a8 83 3d 7f 64 f0 3c
       0.06000104 -0.08351535 0.06428639 0.029344795
000200 b7 6b 4d 3e 7b 9e 01 be c5 31 76 3c c3 85 ff bd
       0.20060621 -0.12658112 0.015026514 -0.12476685
000210 90 f9 8a 3d c1 a2 94 3d c9 9b a5 3c 8f ab 5a bd
       0.067858815 0.07257605 0.020215886 -0.053386267
000220 b3 84 ba 3c df 3e 33 bb a5 72 1a be e5 65 e4 3d
       0.022768354 -0.0027350707 -0.15082796 0.11152247
000230 ac 5a 0f be 40 58 09 3e f3 21 5f bd 95 13 5b bc
       -0.13999432 0.13412571 -0.054475736 -0.013371368
000240 27 4e b6 bd 76 3f 03 3d 15 f4 94 3c d7 10 e4 3c
       -0.08901625 0.032042943 0.018182794 0.027840061
000250 68 d3 6e 3d 39 8a 21 be 95 ea 57 bd 48 f6 68 3b
       0.05830708 -0.15775384 -0.05271395 0.0035547186
000260 eb ce e3 3b 60 90 6a 3d 98 44 26 3d db 65 d9 bd
       0.006952157 0.057266593 0.04059276 -0.106151305
000270 ab 2d 9c bc c4 3c d0 3d 9f be 1d bd de d5 f1 bd
       -0.019064745 0.1016784 -0.03851187 -0.1180837
000280 eb c3 6f 3d 88 7a 3c bd 23 e0 2d 3e 53 e6 5c bd
       0.05853645 -0.046015292 0.16980033 -0.05393059
000290 bb a8 c3 bd 5e 58 db bd 75 4c 20 3c 69 2f 13 3d
       -0.09553667 -0.10710214 0.009783854 0.035933886
0002a0 29 3b d3 3d ee 22 e4 bd b5 42 57 3d d7 b5 50 3c
       0.10314018 -0.11139475 0.05255385 0.0127386665
0002b0 47 74 a4 bd f9 c8 2c bb b6 e5 e3 bc 2a 7d 4f 3c
       -0.08029991 -0.0026364906 -0.027819496 0.012664119
0002c0 a4 59 e3 3a d5 3a da bd 30 26 f4 3d d6 96 6c 3c
       0.001734544 -0.106557526 0.11921346 0.014440259
0002d0 83 b8 82 3c 93 82 83 3d 12 78 19 3e 47 ea 02 3e
       0.015957123 0.064213894 0.1498721 0.12784682
0002e0 a8 6d ab bd e9 22 1f bd 71 44 21 3e f3 0f 1e 3e
       -0.08370525 -0.038851652 0.15748765 0.15435772
0002f0 20 34 45 3d 9a 87 ac 3c 1b eb 75 3d c0 80 0b 3e
       0.048145413 0.021060754 0.060038667 0.13623333
000300 d1 f2 a6 bd 36 4d 58 bd 88 17 6c bd 02 1b 90 bd
       -0.08151782 -0.05280801 -0.05763963 -0.07036401
000310 2d 03 86 3d c3 36 65 3d d2 c6 cc bd c0 a1 b9 bb
       0.065435745 0.055960428 -0.099988595 -0.005665034
000320 be 26 1c 3d b4 96 62 bd 95 43 f9 3c 0f 3f 0c be
       0.038122885 -0.055319503 0.030427733 -0.1369593
000330 7a 71 b0 bd ad 8e b7 bd 51 2b 06 3c 32 c3 9f 3c
       -0.08615394 -0.0896276 0.008189038 0.019502256
000340 90 ed 88 3c 8a 7d d8 3d ae 00 f1 bc db b7 14 3e
       0.016714841 0.1057082 -0.02941927 0.1452326
000350 9d 03 83 bd 31 f0 75 3d 88 e3 3d 3e 7a b6 c2 3d
       -0.063971736 0.060043518 0.18543828 0.09507461
000360 6c 96 c4 3b cb a0 1e 3e bd bf 0d 3d 8a 0d 69 bd
       0.005999377 0.15491025 0.034606684 -0.056897677
000370 43 c5 96 3d 78 0d 34 bd 82 f6 19 bc 97 89 d3 3d
       0.073618434 -0.043958157 -0.009397151 0.103289776
000380 53 d5 35 bd d8 2e b7 3c 75 a4 2f bd 86 c4 c8 bd
       -0.044392895 0.022361204 -0.042881448 -0.09803109
000390 bc fe 05 be 0c 77 77 3d c5 c9 bf bd 74 cd 99 bd
       -0.13085455 0.060416266 -0.09364656 -0.0750989
0003a0 10 a6 45 bd 72 91 04 3d 2e 95 1a bd ec c9 9a 3c
       -0.048254073 0.03236527 -0.037739925 0.018895112
0003b0 c3 db 40 bd 96 fd 78 bd 24 cc dc 3b 92 c4 a4 3c
       -0.04708458 -0.060788713 0.0067382026 0.020113263
0003c0 e1 6f b0 bd de af 57 3c 57 e7 8a bc a4 25 a9 3b
       -0.08615089 0.013164489 -0.016956015 0.005161958
0003d0 01 cf 9a 3d 2a 56 a5 3d 3e 8f f9 bc 5a ae 7c 3d
       0.07559014 0.08073075 -0.030463811 0.061689712
0003e0 e1 62 9f bd 4f 56 ca 3d 8d fd 17 3e b0 b7 9f 3b
       -0.077825315 0.09879743 0.14842816 0.004874192
0003f0 85 8c 1a 3e 1d f6 5d 3c 83 47 f1 3d ab d4 06 be
       0.15092666 0.0135474475 0.11781218 -0.13167064

lstm2.weight_ih_l0 f4 [256, 64]
000000 65 b4 3b be cf 1c 72 3e 3c 10 ea bd d8 d9 7c 3d
       -0.18330534 0.23643802 -0.11428878 0.06173119
000010 d7 2a 4c bd 4b 33 28 be fe e7 b5 bc 34 61 02 bd
       -0.049845543 -0.16425817 -0.022205349 -0.03183098
000020 18 74 94 3d e2 41 27 be 29 5b b9 bd ff 5b b6 bd
       0.072487056 -0.16333726 -0.090505905 -0.089042656
000030 68 48 55 3e a9 df fb 3c ec e4 1e be d5 9b 1c 3d
       0.20828402 0.030746298 -0.15517014 0.03823455
000040 82 e3 e7 bc 84 b3 13 3e da 62 2c 3e ec 48 2c be
       -0.028306726 0.14423949 0.16834584 -0.16824692
000050 0b 00 5e be 22 56 8d 3e 1c 2e dd 3d f6 8b 94 3d
       -0.21679704 0.27604777 0.1079981 0.07253258
000060 fc 1a aa 3c a4 f1 bf 3d 3a d5 8f bc 41 3b 4c be
       0.02076482 0.09372261 -0.017557729 -0.19944479
000070 ae c8 83 be 8e da 39 be d6 16 76 bd 9f a6 15 bd
       -0.25739044 -0.18149778 -0.06008037 -0.036535855
000080 59 85 7a bd 10 01 86 3e 03 d0 9e 3e 37 0e c1 be
       -0.061162326 0.26172686 0.31018075 -0.37706158
000090 0d 69 df 3c c6 d9 66 3e c9 52 3d be 3d b6 ba bd
       0.027271772 0.22544011 -0.18488611 -0.091167904
0000a0 e1 d0 19 be c2 2c 37 be 2d 7b 6c 3d 6d 28 53 3c
       -0.15021087 -0.17888168 0.057734657 0.012888056
0000b0 a0 8c f1 3e 45 f3 a8 3d ac b6 f5 bb a6 70 2e bd
       0.471776 0.08249525 -0.007498583 -0.0425879
0000c0 ed 00 82 3e 20 5e 8f 3d 24 b9 bc 3c 7c 85 3a bd
       0.2539133 0.07000375 0.0230375 -0.045537457
0000d0 ce 8e b8 bd ce e2 e3 3d 3f dd 8d 3c dc f4 f0 bc
       -0.09011613 0.11127244 0.017317412 -0.029413633
0000e0 13 bb c5 bd dc c0 f7 bc 51 e5 ef 3c fe 0a 04 bd
       -0.09654822 -0.03024333 0.029284151 -0.032237045
0000f0 78 b6 44 bd 79 8e de 3d 02 ef f9 be d0 d8 40 bc
       -0.04802558 0.10867018 -0.4881516 -0.011770442
000100 1c 8f 4f 3d 91 68 bd 3c 28 f8 8a 3d 56 e7 0b be
       0.05067359 0.02312115 0.06785613 -0.13662466
000110 6b f7 66 be 36 dc 37 3d 30 b8 db 3d 91 95 31 3c
       -0.2255532 0.044887744 0.1072849 0.010838882
000120 2b 57 f5 bd b1 0c 81 bd ab 4c 2c bd f4 91 08 bd
       -0.119795166 -0.06301249 -0.042065304 -0.033342317
000130 5e 65 6f 3e 2e 1e 0b be cf fb 1c bc c7 50 b8 3d
       0.23378512 -0.13585731 -0.00958152 0.08999782
000140 16 26 04 3d 6a 55 88 bd 48 77 6c 3e 1e ba e6 bd
       0.032262884 -0.066569164 0.23092377 -0.11265968
000150 cb e3 82 be ee d1 72 3d 34 86 e7 bd ef ba 20 be
       -0.25564417 0.059282236 -0.11304894 -0.1569631
000160 43 d5 35 3c 2f 4e 0b 3d 88 a1 24 be 55 d0 2f be
       0.011098209 0.03401011 -0.16077244 -0.17169316
000170 46 04 bb be c9 b8 a3 bc 52 79 81 3d 3f 8c a6 3d
       -0.36526698 -0.019985573 0.06321968 0.081322186
000180 9b 31 c6 bd e6 20 95 3d 4a 3c 04 3e 11 85 0c bd
       -0.0967743 0.072816655 0.12913623 -0.03430659
000190 35 67 49 bd ed 6f 1a 3e 1f f1 12 bd 72 7b 86 bd
       -0.04917069 0.15081759 -0.035874482 -0.06566514
0001a0 cb e3 0c be 64 73 34 be 65 96 36 bd 00 76 28 bd
       -0.13758771 -0.17622143 -0.04457702 -0.04112816
0001b0 32 59 01 3d cb 66 58 3b 6d d0 c6 3a f0 8e f6 3d
       0.031579204 0.0033020254 0.0015168317 0.12038982
0001c0 97 fe 53 3d fe f3 53 bd 98 0d 44 be a8 bb b9 bd
       0.051756468 -0.05174636 -0.1914581 -0.09068996
0001d0 5d 66 d5 bd ab eb 9e 3d 18 38 9f 3d 4a 2c 2c 3e
       -0.10419915 0.07759794 0.07774371 0.1681377
0001e0 b9 bf c8 3c 44 0a e5 3d c4 8b 3a bd c3 dc 32 be
       0.024505483 0.11183599 -0.045543447 -0.17467026
0001f0 b4 8d 1a be 5c cc 08 3e 0a f5 b8 be f8 43 1e 3e
       -0.15093118 0.13359207 -0.3612445 0.15455616
000200 8e 89 d5 bd 82 fa 12 3d 89 6a 3d be 60 a1 ce 3c
       -0.10426627 0.035883434 -0.18497671 0.025223434
000210 98 b4 2c bd 00 3c 9e 3d 23 b5 93 bd 6d de 73 be
       -0.042164415 0.07726288 -0.072122835 -0.23815317
000220 cb f6 8b bd 66 07 a4 bd 33 bf 09 3e f5 24 9e 3e
       -0.068341814 -0.08009224 0.13451843 0.3088757
000230 94 f1 85 bd f9 80 5b 3e 82 74 22 3e 53 12 0d be
       -0.06540218 0.21435918 0.15864757 -0.13776521
000240 98 42 be bd 76 94 c8 3d 0a 4e 51 be cd f7 f5 bc
       -0.092900455 0.09793942 -0.20439926 -0.030025387
000250 e3 ff 6a 3e ad 83 84 3d c8 db 1f be f1 44 f6 3d
       0.22949176 0.06470428 -0.15611184 0.12024868
000260 d7 96 df 3d b7 a1 63 bb d9 3b 44 3e 70 73 ec 3c
       0.10917442 -0.003473384 0.19163455 0.028863639
000270 bd 95 fb 3d cc af 07 3e 49 cd 5a 3e 3a 29 fe 3b
       0.1228442 0.13250655 0.21367373 0.0077563794
000280 f8 8d c6 3d 1f 22 f9 bc 57 6b e7 3e 0b c8 08 3e
       0.09695047 -0.030411778 0.4519908 0.1335756
000290 4a 50 27 3d 19 58 8b be 48 ef 33 be b0 ae 72 3e
       0.040848054 -0.2721565 -0.17571747 0.2369945
0002a0 96 a0 dd 3d e6 97 0c be f7 41 a3 3d 6e 2c 2f 3e
       0.10821645 -0.1372982 0.07971566 0.17106792
0002b0 15 77 81 3d ab 2a 28 be 94 6e 5a 3d c6 e2 9f be
       0.06321541 -0.16422527 0.05332811 -0.31227702
0002c0 9d b5 3b 3d fe f5 1b bd fc 07 cf 3a 78 b4 c6 bd
       0.045827497 -0.038076393 0.0015795226 -0.097023904
0002d0 25 6b 83 3d 62 fd 57 3e c0 33 67 bd 21 62 81 3c
       0.064169206 0.21092752 -0.056445837 0.015793862
0002e0 a2 87 c2 bd 62 16 4b be 87 df f1 3c 4e 04 27 3e
       -0.09498526 -0.19832757 0.029525531 0.16310236
0002f0 cd a6 87 bd 9f a8 ae 3d 8c 3e 1e 3e 8c 77 27 3e
       -0.066236116 0.08528256 0.15453547 0.16354197
000300 bc 6a 37 3b cc dc 19 be 5c 92 b9 3d 37 c0 a0 3e
       0.0027987203 -0.15025634 0.09061119 0.31396648
000310 0e 10 12 be 8b 82 e2 3d 73 da 1c be 18 dd 50 3d
       -0.14263937 0.11060055 -0.15317707 0.0509921
000320 99 41 3b bd 80 ae 4d 3d 34 b9 bf 3c 2c 0d 01 3d
       -0.045716856 0.050215244 0.023403741 0.031506702
000330 d1 d0 4e be e2 0f 7e 3e e8 f3 26 3e 23 36 e7 3d
       -0.20196845 0.24810746 0.1630398 0.11289623
000340 08 19 5c 3d e6 10 05 3e c4 48 39 be fd 73 b6 bd
       0.05373481 0.12994727 -0.18094164 -0.08908842
000350 be 93 bc 3e 97 07 20 be 31 3e 82 be d8 e7 b6 3c
       0.36831468 -0.15627895 -0.25438073 0.022327349
000360 d1 bb 80 3e 49 af 0f bd e2 30 3a 3e a3 7a 9e 3d
       0.25143293 -0.035079274 0.1818271 0.07738235
000370 de c5 33 be 66 f5 17 be 6b 53 95 3e 82 ae 46 be
       -0.17555949 -0.14839706 0.29165205 -0.19402507
000380 e5 b2 8b 3e c8 3f d8 3c 31 fe 8a 3d 2c 7f 38 3e
       0.27284923 0.0263976 0.067867644 0.18017262
000390 71 f1 f2 3d 9e 6c e6 bb 1d 44 14 3e 5b 29 90 3e
       0.118624575 -0.007031991 0.14479108 0.28156552
0003a0 66 47 2e 3e 7c f6 fb ba dc 29 23 3d b6 6d f1 3d
       0.17019424 -0.0019223238 0.039834842 0.11788504
0003b0 6e 6e 4b be 0e d5 8e be a2 c9 49 3e b3 82 84 be
       -0.19866344 -0.27896923 0.19705823 -0.25880966
0003c0 2a 93 42 bd 9e a6 23 bc 3b e3 1c bd 3d 05 b3 bc
       -0.047503628 -0.009988455 -0.03830264 -0.021853084
0003d0 46 0c 4c 3d 76 33 1a 3d a7 67 d0 be 23 6b 92 3d
       0.049816392 0.037646733 -0.4070408 0.07149341
0003e0 11 9e 6e bd c6 c2 6e be 84 a9 5a 3e 00 5a 07 3e
       -0.058256213 -0.23316488 0.21353728 0.13217926
0003f0 09 5b f5 3b f9 c2 70 3e e1 3a ac be b2 66 08 3e
       0.007487659 0.23511876 -0.3363867 0.13320425

lstm2.weight_hh_l0 f4 [256, 64]
000000 7b a8 9f be 4d db d3 3e b9 d8 00 be 02 4e da 3c
       -0.31183228 0.4137825 -0.12582673 0.026648525
000010 47 86 b6 b8 35 c5 5b be db f5 01 bd 56 cb 40 bd
       -8.7034474e-05 -0.21461947 -0.031728607 -0.047068916
000020 3d 8a 3c 3e 3c a5 05 3e 15 47 3d 3e 15 65 ea 3e
       0.18412109 0.13051313 0.18484147 0.45780244
000030 6f e9 89 be dd 8a 80 3e 95 7f 11 3e e9 ec 5b be
       -0.26935908 0.25105944 0.14208825 -0.21477093
000040 40 76 ad bc 69 86 bf 3e 66 3e d9 bd 0b 89 03 be
       -0.02117455 0.37407234 -0.10607605 -0.12845246
000050 57 66 91 3c 12 f2 98 3e 2f 4f 8e 3d 3d b6 9c 3c
       0.017748995 0.29872185 0.06948697 0.019129867
000060 22 8b a5 bd 72 4c 17 3c b1 25 57 3e ad aa 8f 3e
       -0.08083178 0.009234535 0.21010472 0.28059903
000070 05 52 11 be e5 c7 aa 3e 2f 4d 24 bd ee d7 56 bc
       -0.14191444 0.33355632 -0.04011267 -0.013113005
000080 d8 9a db bd 87 9c 69 bd ca 82 ad bd 81 99 dc 3d
       -0.107228935 -0.05703404 -0.08472212 0.10771466
000090 ac a8 31 be 85 8e 12 3e 34 4c ca be 6b b5 c1 bd
       -0.173495 0.1431218 -0.39511263 -0.09458431
0000a0 c0 18 55 3e 5d 45 92 bc 2e 09 5c 3d f6 61 f4 3d
       0.20810223 -0.01785534 0.053719692 0.11932747
0000b0 e8 f1 98 bd 52 a2 4a 3e ca ca 60 bd ef 9f 4d bd
       -0.07468015 0.19788483 -0.054880895 -0.050201353
0000c0 ee 64 51 3c 0f 25 38 3d 94 e8 cb 3e aa d7 94 be
       0.012780411 0.044957217 0.3982588 -0.2907079
0000d0 14 4e 66 be 43 a0 0b 3d b0 48 c5 3e 86 11 09 3e
       -0.22490722 0.034088384 0.3853202 0.13385591
0000e0 69 a3 54 3e 4c 86 a7 3e b4 12 17 be a6 2b 41 3d
       0.20765461 0.32719648 -0.14753228 0.047160767
0000f0 dd 50 24 3d fb 96 91 3e 58 b4 ab 3d e2 f1 a4 3c
       0.04011618 0.284355 0.08384007 0.02013487
000100 fb 91 8f be 4f 09 37 bd 4a ee fa bc c9 67 bf bd
       -0.28041062 -0.04468661 -0.030631203 -0.09345967
000110 c5 07 35 3d 28 0e 2f 3e 66 dc 50 3d fb a7 a0 3e
       0.044196863 0.17095244 0.05099144 0.3137816
000120 92 66 be 3d cc b4 98 bd c3 6c c3 3d ba a7 b6 3d
       0.092969075 -0.07456359 0.09542229 0.0891871
000130 92 79 a8 be b5 f7 c8 be b5 9c b2 bd 00 1c 55 bc
       -0.3290525 -0.39251485 -0.08721296 -0.013007164
000140 46 c5 2c 3e fc 8e 93 3e c9 53 89 be 94 92 49 3e
       0.16872129 0.28820026 -0.26821736 0.19684821
000150 19 09 8e be 33 e6 55 3e 83 c6 5c be a1 27 45 3e
       -0.27741316 0.20888595 -0.21560101 0.19253398
000160 6b f6 24 bd 3f 0c 60 3e 17 b9 55 3e 1a 7e 4d 3e
       -0.040274065 0.21879672 0.20871387 0.20067635
000170 15 6e 68 be 13 37 60 3e 43 6f c0 bb ac c3 00 3e
       -0.22698243 0.21896009 -0.0058726384 0.12574643
000180 fc e8 ca bd 59 35 c2 bd 68 45 18 be 04 49 e4 bd
       -0.099077195 -0.094828315 -0.14870226 -0.11146739
000190 94 10 7d 3d 43 31 af bd 21 db db bd 57 ea e0 bd
       0.06178339 -0.08554318 -0.10735155 -0.10982197
0001a0 06 50 b4 3d 12 27 4e 3e 7a dc 9b bd f2 f3 28 3e
       0.08804326 0.20132092 -0.07610412 0.16499308
0001b0 38 79 b9 bd b0 85 97 bd f7 a7 cf 3d f1 d2 9a be
       -0.09056324 -0.07398546 0.101394586 -0.3023906
0001c0 47 ee c6 be 0e c6 05 be ca e3 3a be c9 fd b5 3c
       -0.38853666 -0.13063833 -0.18250957 0.02221574
0001d0 55 2c 56 3d fe 32 3e 3d 53 0b 1a be e5 df 1c be
       0.052288372 0.04643535 -0.15043382 -0.15319784
0001e0 3c b6 a3 3e ca da 3a 3e 5b 0a 74 3e 14 d7 a4 be
       0.3197497 0.18247524 0.23832075 -0.32195342
0001f0 7b f7 6f be ac f7 3f 3e 65 ab 30 bd d5 36 54 be
       -0.2343425 0.18746823 -0.043132205 -0.20724042
000200 90 c0 04 3e fa 65 8e 3d d1 5f 71 3e bc 9f 39 bc
       0.12964082 0.06953044 0.23571707 -0.011329588
000210 eb f8 c8 bd 56 41 b6 be 47 34 cc bd d1 22 f1 3b
       -0.09813102 -0.35596722 -0.099709086 0.007358887
000220 94 fa cb bb 53 95 48 3e 82 47 f7 3c 87 50 8e 3d
       -0.0062249396 0.19588213 0.030185465 0.06948953
000230 5d da 8f 3d 59 7c f3 3d fe d9 c1 3d de dd 13 3e
       0.07024071 0.11888952 0.09465407 0.14440104
000240 53 76 fb bd c8 c9 65 be ad 0f 02 3d 18 95 fb bd
       -0.12278428 -0.22440255 0.03175323 -0.12284297
000250 06 66 7d 3e f1 58 2b be 2c e7 0f be e4 57 09 3d
       0.2474595 -0.16733147 -0.14053029 0.033531085
000260 05 23 21 3d 21 3e 0d be 5b 62 a7 be ae 65 e2 bc
       0.039340038 -0.13793232 -0.32692227 -0.027636375
000270 f6 a7 b3 3d 57 77 de bd 7e 6a 0a 3e 75 14 96 3d
       0.087722704 -0.10862606 0.13517186 0.073281206
000280 53 19 28 3d 93 bb 83 bc d7 3d 4b be f7 4b 62 3e
       0.041039776 -0.016080653 -0.19847809 0.22099291
000290 89 92 10 3b 02 b5 3c 3c a7 f2 94 bc de 84 0b 3e
       0.0022059998 0.011517765 -0.018182112 0.13624904
0002a0 d1 d4 1f 3d 22 ac be 3d 2b d5 03 3e d6 3f 69 be
       0.039021317 0.093101755 0.12874286 -0.22778258
0002b0 c7 23 a0 3d da d4 3e 3d 14 8c 3b bc 41 7b 74 3c
       0.07819324 0.04658971 -0.011446971 0.014921964
0002c0 10 22 a9 3e 6d 32 d1 bc c1 38 7c 3d 02 1f 94 3d
       0.330338 -0.02553674 0.061577562 0.07232477
0002d0 b5 d2 b8 3c b7 bb f5 3d 5f bf 2b 3e be c3 13 3e
       0.02256141 0.119986944 0.16772221 0.14430138
0002e0 d8 77 97 bd 5b 29 1e be 96 89 36 be be 12 a8 3e
       -0.07395905 -0.15445463 -0.17825922 0.328268
0002f0 28 4b 8b 3b a8 f2 26 be d6 1c af 3d 67 a8 53 3e
       0.0042509027 -0.16303504 0.08550422 0.20669709
000300 cd 96 03 bf c9 90 6e 3e 90 b2 e7 3d 0d ca 95 bc
       -0.5140198 0.23297419 0.11313355 -0.018284822
000310 ab e0 ab bd 35 7e 9d bd cb b2 8b 3d d3 89 0e be
       -0.083924614 -0.07690088 0.068212114 -0.13919763
000320 39 04 f2 bc e8 90 81 3d ff aa 0c 3d ad b0 40 bc
       -0.02954303 0.06326467 0.034342762 -0.011760873
000330 7c 52 1c bd 5e 72 a7 3e 39 70 77 bd 2c 38 d3 bd
       -0.0381646 0.32704443 -0.06040976 -0.10313448
000340 d5 49 8f be bc 5c 07 be 8d 09 8b 3c 52 98 89 be
       -0.27986017 -0.13218969 0.016972328 -0.26874024
000350 43 d4 61 3e b4 1b 10 be 7a ed 62 be 57 8c ce be
       0.22053628 -0.14073068 -0.22160903 -0.40341446
000360 a3 da 7d 3d a1 94 07 be 30 30 60 bd 26 58 ca bd
       0.061976086 -0.13240291 -0.054733455 -0.09880094
000370 5f c3 b2 3d 3d 93 77 bd 31 40 0e be b0 69 a5 be
       0.0872867 -0.06044315 -0.13891675 -0.32307196
000380 af 78 3b be 17 f7 79 3d a9 f4 0e bb 1f 3f b9 3d
       -0.18307756 0.06102666 -0.002181331 0.090452425
000390 39 c9 47 3c a4 26 af 3d 43 f1 6e 3e ae a1 d0 3d
       0.012193971 0.08552292 0.23334222 0.10187088
0003a0 53 0e 04 3e cf 18 0d be dd ac cf 3d 9c 45 63 be
       0.1289609 -0.13778995 0.10140393 -0.22194523
0003b0 22 24 58 3e 9d 4e 80 be 30 1e fe bd 4e bb 0f 3d
       0.21107534 -0.25059977 -0.124081016 0.035090737
0003c0 13 29 8c 3e 6f d3 e7 3c 4a ba 05 3e 88 63 96 bd
       0.27375087 0.028299062 0.13059345 -0.07343203
0003d0 04 b2 82 be 84 ca 5b bd 36 a0 97 be f3 bd 6a 3e
       -0.2552644 -0.05365993 -0.2961442 0.22924022
0003e0 d4 fd db bc ab 40 7b 3e 07 c6 29 be b4 ee 20 3b
       -0.026854433 0.24536388 -0.16579448 0.002455634
0003f0 1b 99 b2 3e ab ba ec 3e f9 13 41 3e cc 0f 87 bb
       0.34882435 0.46236166 0.18855275 -0.004121756

lstm2.bias_ih_l0 f4 [256]
000000 de 85 84 be 30 ad f5 3d d1 3e e7 3d bd e9 ae bc
       -0.25883383 0.119959235 0.11291278 -0.02135169
000010 02 9f 89 bd fc a2 19 3d 9c a6 cf be 4c 88 67 3d
       -0.067197815 0.03750895 -0.405568 0.056526467
000020 46 ef 1a bc 09 6c a8 3d eb 05 a5 bc 92 c4 df bd
       -0.009456461 0.08223731 -0.020144423 -0.10926165
000030 83 7f 85 bd 6e 8a e1 3c ab 45 39 be 7d c4 2d 3c
       -0.065184616 0.027531829 -0.18092982 0.0106059285
000040 48 9f 96 bc c7 66 82 3d 7f 71 b5 3d 3e 95 d2 bd
       -0.018386498 0.063672595 0.08859538 -0.10282372
000050 c0 53 88 3d d2 b3 05 bd 99 95 19 be ec 2f ef bc
       0.06656599 -0.032642193 -0.14998473 -0.029197656
000060 47 cf 0e bd fc f6 dd 3d c8 7a a0 bd 71 13 68 be
       -0.034865644 0.10838124 -0.07835919 -0.22663666
000070 47 bf ad 3d e8 48 a6 be ee 57 22 be 6d 3e 2a be
       0.08483749 -0.32477498 -0.15853855 -0.16625376
000080 76 1f 43 be 34 ad 93 bd 73 01 86 be 3c 8a 5e be
       -0.1905497 -0.0721077 -0.2617298 -0.2173242
000090 6f a1 0d 3e e8 76 a8 bd 47 6b 2f be 1b 72 46 be
       0.13831113 -0.082258046 -0.17130767 -0.19379465
0000a0 9b 8a c2 3d 52 22 39 3b fe aa ad 3d 9e 81 05 be
       0.09499093 0.0028249216 0.0847988 -0.13037726
0000b0 3d 2f e5 bd 82 f3 0c be e1 8d 54 be ed 3a 11 3d
       -0.111906506 -0.13764766 -0.20757248 0.035456587
0000c0 0c 66 88 3d 3a 9a b4 bd 4e d8 5f be 05 1a 82 be
       0.06660089 -0.08818479 -0.21859857 -0.25410476
0000d0 ea b9 ca bd fd 1a 94 be 7f 1b 92 bd c9 05 f6 bd
       -0.098987415 -0.2892684 -0.07134151 -0.12012822
0000e0 af 98 4d 3d ef c2 9b 3d 0b d2 60 be 6a e1 0a bb
       0.05019444 0.0760554 -0.21955125 -0.0021191486
0000f0 b3 bd f8 bd 96 3f 28 3d 36 89 5d be 1d 9c 70 bb
       -0.12145557 0.041076265 -0.21634373 -0.0036714145
000100 02 86 92 3b 0d 65 cd bc dc 9d e6 3d e8 28 04 3e
       0.0044715414 -0.025072599 0.11260578 0.1290623
000110 7f 4b 53 bd 13 14 53 bd b8 68 f5 bb 9b 02 3f 3d
       -0.05158567 -0.051532816 -0.00748929 0.046633344
000120 57 c6 94 bd 31 d8 72 bd 79 a4 f4 bd 03 a0 cb bd
       -0.07264393 -0.059288207 -0.11945433 -0.09942629
000130 7b cf 7b bd 0c 03 aa 3d 90 51 0a be 8c f9 b6 3d
       -0.061477166 0.083013624 -0.13507676 0.08934316
000140 cf 43 bb bc 0e 28 4f 3d 8d 69 c2 3d f6 c3 d1 bd
       -0.022859482 0.05057531 0.094927885 -0.10242455
000150 68 5a bc 3c 8c 10 26 be 25 83 b6 3d cc ba 03 ba
       0.022992328 -0.1621725 0.089117326 -0.00050250883
000160 a6 03 dc 3d 7c ab 88 3d be a8 10 be ae da 28 be
       0.107428834 0.06673333 -0.1412687 -0.1648967
000170 6f 2a 8c bd 37 8e 94 be f3 2a df bd a5 be bc bc
       -0.06844031 -0.2901475 -0.10896864 -0.023040125
000180 b9 7c 7e be fd 7f 92 bd 9a 2d 9e bc fd cc 6d be
       -0.24852265 -0.07153318 -0.019308854 -0.23222728
000190 14 17 3b 3c 60 97 a2 bd 8a 16 d9 bd 6f 7f 80 ba
       0.0114190765 -0.07939029 -0.10600002 -0.0009803603
0001a0 d8 2c a7 bd 01 5b dc bd 12 e8 bc bd e5 ea f3 bd
       -0.0816285 -0.10759545 -0.092239514 -0.11910037
0001b0 35 6d c6 3c 53 89 b7 bc 3d 22 c5 3c 5f 92 4c bd
       0.024221996 -0.022404348 0.024064178 -0.049944278
0001c0 b5 90 e4 3c 65 49 af 3c 1c 67 cf bd 11 a1 02 be
       0.027901033 0.021397302 -0.101270884 -0.12756754
0001d0 3d 4a 67 3e 89 52 6b be 72 55 b9 bd c7 70 6f be
       0.22586913 -0.22980703 -0.090495005 -0.23382865
0001e0 d4 d9 30 3d 62 99 e2 3d d5 46 5a 3d 07 12 52 be
       0.043176487 0.11064412 0.053290207 -0.2051469
0001f0 1f 3b 9a 3c 87 7f e7 3c a8 76 73 bd 71 e1 cb bc
       0.01882702 0.028259052 -0.05943933 -0.024887772
000200 d5 dd 72 bd d3 88 05 3d fa e8 d2 bd 77 f3 3e 3e
       -0.059293587 0.03260119 -0.10298343 0.18647562
000210 25 74 8d 3a da 2e 90 bd 92 df a2 3c 1e 03 06 be
       0.001079206 -0.07040186 0.019881997 -0.13087127
000220 79 7a ae ba 91 88 54 3d ae 9e 89 bd 28 65 33 3d
       -0.0013311646 0.051888052 -0.06719719 0.043797642
000230 31 bb ec bc a8 e7 4a 3b ee 2c d8 3d 34 5f a5 3c
       -0.028897854 0.0030960832 0.10555445 0.020186998
000240 86 aa 6d 3d 72 12 16 be ff 0d bc 3d f1 c7 49 bd
       0.058023952 -0.14655474 0.09182357 -0.049262945
000250 1e a1 93 3d d3 9b 56 3d 6d 88 3c 3d 64 c4 65 bc
       0.07208465 0.0523947 0.046028543 -0.014023874
000260 19 c7 39 bd 1d 99 ee 3d 17 56 1e be 97 55 01 bd
       -0.04535589 0.11650298 -0.15462528 -0.031575765
000270 c2 47 da 3d 8b e0 6e bc 60 b8 55 3d 48 e6 6f 3d
       0.10658218 -0.014579902 0.052177787 0.058569223
000280 c4 d8 91 bd c8 8f 08 3e fa 0c 0f be 1a b7 01 3e
       -0.07121423 0.13336098 -0.13969794 0.12667504
000290 c9 44 01 3d b3 fa 51 3c 92 fa 78 3d b6 46 13 be
       0.03155974 0.012816119 0.060785837 -0.14382443
0002a0 e5 ac 40 3d 7b b9 63 3b c8 23 b4 3d 0e 29 a9 bd
       0.047039885 0.0034748006 0.08795887 -0.08259784
0002b0 aa 7e b9 3c 33 ee 0a bd e6 37 c4 bc 53 43 f7 3b
       0.022643406 -0.03391857 -0.023952436 0.0075458675
0002c0 6c d6 0f 3c 1f 5c 14 be 71 de 46 3c d6 d0 01 3d
       0.0087791495 -0.14488266 0.012137995 0.031693302
0002d0 e0 e5 2c 3c 28 ee eb bc 88 15 0a be 0e 87 87 3d
       0.010552853 -0.028800085 -0.13484776 0.066175565
0002e0 f9 44 1f bd f0 45 d3 bd b3 b0 b9 3c c3 46 16 3d
       -0.038884137 -0.10316074 0.022667265 0.036688577
0002f0 cb 3b c6 3c cd a1 8f bd b3 dc 90 3d fe 62 e8 bd
       0.024198433 -0.07013283 0.07073345 -0.11347006
000300 25 4b 9b bd ad 41 cc bd b1 52 50 3c 10 ea df 3c
       -0.07582692 -0.09973464 0.012715028 0.02733329
000310 88 80 1b bd 94 4f ca 3c db 9a 74 bd 48 11 1e 3e
       -0.037964374 0.024696149 -0.059717994 0.1543628
000320 eb 71 c4 bd fb 97 36 bd 32 eb 54 be 05 c7 e5 bd
       -0.09592041 -0.044578534 -0.20792845 -0.112196006
000330 f9 95 a0 bd fe 8e 97 bd 80 fc 3e 3d 63 60 fc 3c
       -0.07841105 -0.074003205 0.04662752 0.03080768
000340 c3 5f e3 bd 03 2d 90 bd 20 32 3c bd a7 99 84 bd
       -0.111022495 -0.07039835 -0.04594624 -0.06474619
000350 74 91 ff 3d fb 7f d9 bc 7a bb ae 3d 3f d0 0e be
       0.12478915 -0.026550284 0.08531852 -0.13946627
000360 e0 4b 1a be 88 a8 3d be 7e b6 7d be 6f 3a 44 be
       -0.15068007 -0.18521321 -0.24776646 -0.19162916
000370 8e 0e bb 3b 7d a7 f7 bd 47 d5 35 be 2d 74 50 be
       0.005708522 -0.12092493 -0.1775714 -0.20356818
000380 12 8f 16 be 9d ba a8 bd d5 1b 0c be ba 19 3b be
       -0.14703014 -0.08238719 -0.13682492 -0.18271533
000390 e8 c8 20 3e 95 e9 b0 bd a7 a5 f2 bd a1 f9 e0 bc
       0.1570164 -0.08638302 -0.11848002 -0.027462782
0003a0 6f 7f d5 3d 76 46 27 bd 0d 60 c0 3d d7 c9 18 be
       0.10424697 -0.04083868 0.0939332 -0.14920746
0003b0 cc c3 76 be ea 47 fd bd 01 61 ca 3c de a0 b1 bd
       -0.24098128 -0.12367232 0.024704458 -0.08673261
0003c0 15 79 00 3e fa c4 28 be 02 62 06 3c fc 7a af bd
       0.12546189 -0.1648139 0.008202078 -0.08568379
0003d0 03 64 ea 3b 6b f6 9c be 37 93 da bc d4 22 04 be
       0.0071530356 -0.30656752 -0.026681526 -0.12903911
0003e0 fc 1a d9 bb 46 63 ed bd b6 20 c5 bd f9 2b e3 3c
       -0.0066255312 -0.115912005 -0.0962538 0.027730929
0003f0 2f 47 6a be c2 46 b8 bd 96 e1 88 be 75 07 c1 3d
       -0.22878717 -0.08997871 -0.26734608 0.094252504
